model.pth (torch, 3776 bytes, 4 tensors)

layer1.weight f4 [10, 35]
000000 27 94 34 bf 65 26 3e 3f 09 b1 b5 3f ea 5a 8c 3e
       -0.7053856 0.74277335 1.4194652 0.27413112
000010 25 3a 12 40 30 00 bf bf 87 e4 5e bf e2 80 b7 3e
       2.2847989 -1.4921932 -0.87067455 0.35840517
000020 e5 a3 2c 3f bf 6e 07 3f 87 1c 31 bf cf 71 42 3f
       0.67437583 0.5290336 -0.69184154 0.7595491
000030 cc ae bf 3f eb 15 a4 bf 11 33 ff 3e 19 67 14 c0
       1.4975219 -1.2819189 0.49843648 -2.3187926
000040 3e 5c 91 bf 24 3a b1 3f 23 06 a5 bf ed e7 7d bf
       -1.1356275 1.3845868 -1.2892498 -0.99182016
000050 7c b2 a1 3e c9 a0 11 3f ce 23 8c 3f f3 e6 b2 bf
       0.31581485 0.56885964 1.0948427 -1.397673
000060 44 9e 95 bf 25 84 e7 3e 44 7a 83 3f 4e 93 8a bf
       -1.1688924 0.45218006 1.0271688 -1.0826204
000070 1f 63 c4 3e d6 f8 6a bf a3 04 f6 be fe 34 8b 3f
       0.38356873 -0.91785944 -0.48050413 1.0875547
000080 9b b8 9b 3f e8 31 5e 3f 97 dd 9f 3f 9f 58 c7 be
       1.2165712 0.867949 1.2489499 -0.389348
000090 5b b0 99 3f 23 7c 9b 3f 04 a4 2f 3f c6 9d 80 bf
       1.2006944 1.2147259 0.68609643 -1.0048149
0000a0 20 9d 91 3d e9 67 91 3f 97 f8 e9 be d4 81 01 3f
       0.07110047 1.1359836 -0.45697471 0.50588727
0000b0 63 cb 88 bf aa b0 11 3f 76 b5 31 3f 4b 14 54 bd
       -1.0687069 0.5691019 0.6941751 -0.051777165
0000c0 e5 d0 72 3f 60 f0 e8 bf f1 4e 98 3f 86 d8 1f bf
       0.9485 -1.8198357 1.1899091 -0.62439764
0000d0 81 fd 93 bf 5f e6 96 3e 42 27 4a 3f 2c 17 19 bf
       -1.1561738 0.29472634 0.7896615 -0.5980098
0000e0 c0 60 90 3f d9 1b 9f be 26 56 6b 3e 28 c2 d4 be
       1.1279526 -0.31075934 0.22982082 -0.4155438
0000f0 ea 38 2f 40 90 3b d4 3f d8 60 a8 be 13 6a 7b 3f
       2.7378488 1.6580677 -0.32886386 0.9820873
000100 19 e8 d2 3e 1a b8 2e 3f 53 89 13 3f 2b 1a 0b 3f
       0.411927 0.68249667 0.57631415 0.54336804
000110 c6 bf c1 3f b5 86 3d bd e2 05 86 bf af 75 bc bf
       1.513665 -0.046271045 -1.0470545 -1.4723414
000120 7a b1 0a bf 31 33 6f 3f 35 c4 bc bd ca 64 3b 3f
       -0.5417706 0.93437487 -0.09217111 0.73200667
000130 8d 5b 87 3e a6 e3 a2 be e5 89 6a be a2 66 63 bf
       0.26437035 -0.31814307 -0.22904165 -0.8882848
000140 0f 26 ac 3e f4 a3 56 bf e8 51 3b 3f 68 e1 57 3f
       0.33622786 -0.8384392 0.73171854 0.8432832
000150 5e 63 5d bf 86 72 df 3f 16 7c 85 bd c1 00 64 3f
       -0.8647975 1.7456825 -0.06517808 0.8906365
000160 bc 76 21 3f d0 93 81 bf 58 29 50 3f 05 db 69 bf
       0.630718 -1.0123234 0.81313086 -0.9134982
000170 4d d1 a3 3f 7e 5c 5e 3f 79 7b 41 bf 43 36 fe be
       1.2798249 0.8685988 -0.7557903 -0.49650773
000180 bf 3a 83 bf 27 9e 11 3f d1 42 54 be 6f 7d 75 bf
       -1.0252303 0.56881946 -0.20728613 -0.9589452
000190 57 74 bc bf 9f df c0 bf 55 54 b2 3c 88 c4 6f bf
       -1.4723004 -1.5068244 0.021768728 -0.9365926
0001a0 36 e2 61 bf 5c 76 1d 3e 69 bd 92 bf bc 8c 69 bf
       -0.88235795 0.15377182 -1.1464053 -0.9123037
0001b0 04 12 12 3f 2c b6 38 bf 63 f6 2c 3f 47 bb a3 bf
       0.5705874 -0.7215297 0.67563456 -1.2791528
0001c0 90 0a be be 53 f4 2a 3f 7f cd 71 bf bd d0 f2 3e
       -0.37117434 0.6677906 -0.9445419 0.4742488
0001d0 40 3b 76 bf 08 8b f5 be f2 f4 99 3e 95 a0 77 bf
       -0.9618416 -0.47957635 0.3006969 -0.96729404
0001e0 cd f8 84 3f 95 c7 87 3f 9a 6e 7e bb 0d e8 94 bd
       1.0388428 1.0607783 -0.0038823248 -0.07270823
0001f0 91 78 aa be 57 db 67 3f 9c 68 d0 bf 18 0d 1e bf
       -0.3329511 0.9056906 -1.6281924 -0.6173873
000200 70 8a 1e 3f ce 7c 6f 3e a0 e4 80 3f b7 e0 34 3f
       0.6192999 0.23387453 1.0069771 0.7065539
000210 1a 62 90 3f 69 ad 0c 3f 2c 0a b9 3f 26 db 14 3f
       1.1279938 0.549521 1.4456229 0.58146894
000220 de ad cc 3e 5f aa 9f 3f 9e d1 4f 3f 31 63 ab bd
       0.399764 1.2473868 0.81179225 -0.08368529
000230 e4 40 a0 3f 08 62 94 bf 79 4d 54 bf c1 6f 92 bf
       1.2519803 -1.1592417 -0.82930714 -1.1440355
000240 2f 98 95 3f 9c 3d 65 bf b7 4e cd be 05 58 0c 3d
       1.1687068 -0.89547133 -0.40099117 0.03426363
000250 65 a3 0d 3f a1 74 c7 3f a7 c7 09 bf 18 6c 1d bf
       0.55327445 1.5582467 -0.5382027 -0.6149306
000260 31 ca 33 3f 67 01 88 3f 80 a5 a5 3f e4 b8 ee 3f
       0.70230395 1.0625428 1.2941132 1.8650174
000270 de 86 89 3f 5e 5c d4 bf 61 83 84 3f ae d4 37 3f
       1.0744283 -1.6590688 1.0352594 0.718089
000280 01 29 9b 3f 53 c8 04 bf 5e 7e 59 3f 69 5b 94 be
       1.2121888 -0.5186817 0.84958446 -0.2897599
000290 61 3d a6 be dc 36 8e be 9f f9 a6 bf ec 09 72 bf
       -0.32468703 -0.2777623 -1.3044928 -0.9454639
0002a0 3e a8 b7 3d 01 40 09 bf 32 1c 13 bf 09 90 01 bf
       0.089676365 -0.5361329 -0.574649 -0.50610405
0002b0 1a d3 86 be 5f ef 47 bf 00 61 23 3f f1 d1 c9 3e
       -0.26332933 -0.78099626 0.63819885 0.39417985
0002c0 0e a4 91 3f 5b c6 83 3f e6 56 94 3f 7b e7 23 3f
       1.137819 1.0294908 1.1589019 0.64025086
0002d0 6e e4 a2 3f 18 51 96 3f a0 1b 9b 3f 08 e7 14 bc
       1.2725961 1.1743498 1.2117805 -0.009088285
0002e0 6c 1c 51 bf 05 74 4c 3f 16 01 4f bf e9 cc 75 3f
       -0.81683993 0.7986453 -0.8086103 0.96015793
0002f0 00 45 c1 bf ef de be bf 9a a4 55 3d 20 c6 34 3f
       -1.5099182 -1.4911784 0.05215893 0.70614815
000300 41 80 bc 3f cc f6 7a 3f 2d d0 82 3f 97 6a a1 bf
       1.472664 0.9803283 1.021978 -1.2610654
000310 d6 82 3a 3f e7 93 70 3f 8a d7 3e bd 33 84 8f 3f
       0.7285589 0.9397568 -0.046592273 1.1212219
000320 3d 86 86 bf da 54 ca 3f aa 86 8a bf c1 e8 12 bf
       -1.0509716 1.5807145 -1.0822346 -0.57386404
000330 3e a0 27 3f 34 f8 47 be d9 43 46 3f 7a bf 8f bf
       0.65478885 -0.19528276 0.7744728 -1.1230309
000340 32 a0 61 bf 0d c3 6c bf 40 50 7a bf c3 58 36 be
       -0.88135064 -0.92485124 -0.977787 -0.17807297
000350 ec 66 18 3c 50 04 7b bf fe df 80 bf 84 4b 26 3f
       0.009301882 -0.98053455 -1.0068357 0.6495898
000360 e3 7a 4a be 0a aa c8 be 0a a5 88 bf c5 1a ef 3f
       -0.1977344 -0.3919223 -1.0675366 1.8680044
000370 7c 6e 2e 3f af 38 81 bd cd fe 88 3f 49 d2 10 be
       0.68137336 -0.0630964 1.0702759 -0.14142717
000380 58 55 2b 40 7f bb 8b 3f 2b 7a b1 3e 5e 9f 92 3f
       2.677084 1.0916594 0.3466352 1.1454885
000390 ed c0 5b 3f 48 1f 5d 3f ec f3 5b bf 21 d9 cf 3f
       0.85841256 0.86375856 -0.8591907 1.6238137
0003a0 d0 dc 96 3f 71 bc 87 3f ab a3 71 3f 0a a7 bb bf
       1.1786137 1.0604383 0.9439036 -1.4660351
0003b0 e6 9f c6 bf c6 7d da 3f 12 75 06 3f 85 7e 8f 3f
       -1.5517547 1.7069633 0.52522385 1.1210486
0003c0 f2 13 64 3f 5e 19 b0 3f 41 a9 9e bf 7b da 52 3f
       0.89092934 1.3757741 -1.2395402 0.82364625
0003d0 25 e8 81 bf 2d b4 6b 3f cd 74 99 bf 33 df aa bf
       -1.014897 0.920718 -1.198877 -1.3349365
0003e0 3a 0e 2f 3f 03 43 c9 3f c5 a7 0d 3e c7 9d 38 3f
       0.68381083 1.5723575 0.1383353 0.7211575
0003f0 c6 9c 66 3f ba bb 31 3f 42 3d a4 bf 0d ff 0e bf
       0.9008297 0.69427073 -1.2831194 -0.55857927

layer1.bias f4 [10]
000000 bb bd eb 3f c9 0d c7 3d 08 bd 93 3f 37 20 03 bf
       1.8417276 0.09719426 1.1542063 -0.5122103
000010 c8 72 a2 3f db 56 52 be 42 2e 64 bf ed d2 b5 3f
       1.2691278 -0.20540945 -0.89133084 1.4204994
000020 03 44 94 bf 9c 2b 96 3a
       -1.1583256 0.0011457088

layer2.weight f4 [10, 10]
000000 d7 c2 8a bf cd 6d 8d 3f 39 e0 c1 bf 76 5f 70 3f
       -1.084071 1.1049134 -1.5146552 0.9389566
000010 e3 0a 97 bf d2 83 fa bf 8b 67 64 3e dd e6 d9 3f
       -1.1800197 -1.9571478 0.22305124 1.7023579
000020 bb 97 e8 bf a2 b3 00 40 5f 5f 6a 3f 82 4c 95 bd
       -1.8171304 2.010964 0.91551775 -0.07289983
000030 fc ac 9c 3f 61 0a c3 3f 36 ed e3 3f 6c ba ea bf
       1.2240291 1.5237542 1.7806766 -1.8338141
000040 db c8 75 bf 97 39 c4 3f fd 1a 96 bf 93 c0 12 c0
       -0.96009606 1.5330075 -1.1726986 -2.2930038
000050 e9 15 bb 3f ef eb c0 3f fa b5 e2 bf b4 9c ca bf
       1.4616061 1.5072001 -1.7711785 -1.5829072
000060 8e 17 01 40 58 b7 15 bf e6 97 df bf f7 65 94 bf
       2.0170627 -0.58482885 -1.7468231 -1.1593617
000070 36 13 a7 3f c4 0a 1c bf a8 c6 d8 3f 83 f2 16 c0
       1.3052738 -0.6095393 1.6935625 -2.3585517
000080 ea e1 0f c0 b0 0c c5 bf ed 34 21 c0 ff 47 89 3f
       -2.2481637 -1.5394497 -2.5188553 1.0725096
000090 b9 e6 f4 3f c2 47 25 c0 bb 6d 5b bf d3 bb a7 3f
       1.9132911 -2.5825047 -0.8571431 1.3104194
0000a0 0f 1d 9f bf da 4d 99 bf 35 35 10 40 13 54 03 bf
       -1.2430743 -1.1976883 2.2532475 -0.5130016
0000b0 06 19 ad 3f 5e 3d d1 3e ee 55 c8 3f 52 1f d4 bf
       1.3523262 0.40867132 1.5651224 -1.6572058
0000c0 3b a6 66 3f 67 7b e2 bf 72 64 eb bf a9 ce b2 3f
       0.900974 -1.769391 -1.8390028 1.3969318
0000d0 d6 c2 42 bf 67 d7 8d 3f 07 f1 ba bf 7f 3d f9 3f
       -0.76078546 1.108136 -1.4604806 1.9471892
0000e0 0b 08 b4 3f 31 66 01 c0 d6 de 1f c0 3d dd ee 3e
       1.4064955 -2.0218623 -2.4979758 0.46653166
0000f0 c3 4a 09 bf 99 63 be 3e 19 fc 3c 3e 35 2c a4 3f
       -0.536297 0.37185362 0.18455543 1.2825991
000100 2f 7a ea bf f1 bb a8 3f b3 fd eb bf 23 d3 92 3f
       -1.8318537 1.3182355 -1.8436798 1.1470684
000110 80 ce 52 3f fd 37 b0 bf 80 ab 12 3f 7a d1 66 c0
       0.82346344 -1.3767086 0.5729294 -3.6065354
000120 de 55 c9 3f 25 6d bd bf bb b0 25 3e b6 30 6c 3f
       1.572933 -1.4798933 0.16180699 0.92261827
000130 ff b2 a9 bf e2 f0 69 3f 37 28 d0 bf 7a 52 11 40
       -1.325775 0.91383183 -1.6262273 2.270659
000140 91 e3 c5 bf 0b 9a 7c 3d 27 25 9f bf 6e fd e0 3f
       -1.5460073 0.061670344 -1.2433213 1.7577341
000150 c1 55 27 bf db af 00 c0 6a 33 03 40 e7 d3 64 bf
       -0.65365225 -2.0107334 2.050013 -0.8938584
000160 c6 1c 10 40 5b 22 44 bf e8 28 01 c0 f9 6f 6a c0
       2.2517562 -0.7661492 -2.0181217 -3.6630843
000170 da 81 e0 be da 5b bd bf db f9 9a bf 7f a6 97 3f
       -0.4384907 -1.4793656 -1.21075 1.1847686
000180 db 7f 95 3f 60 46 eb bf 95 e1 fa 3f b7 81 19 40
       1.1679643 -1.8380852 1.9600092 2.3985422

layer2.bias f4 [10]
000000 49 f9 7c be a5 3d 56 3f 39 a9 af bd 35 94 8e be
       -0.2470447 0.8368781 -0.085771985 -0.27847448
000010 ca 78 b7 3d 45 bc 2e 3e a1 48 28 bf 8f 90 7d 3e
       0.089585856 0.17064007 -0.6573582 0.24762176
000020 48 ce 34 bf c2 b9 22 bf
       -0.7062726 -0.63564694
